mnist-logistic.pth (torch, 33794 bytes, 2 tensors)

weight f4 [10, 784]
00000000: 25af 263b 13e1 283b 8d45 053d 37e9 203c
00000010: bca9 0cbd 6a54 233c 5c29 153c a34e f6bc
00000020: 85d4 c43c ce24 a33c 6e6a 3b3b 206c 14bc
00000030: 3e26 b03a 49d4 0e3c b704 cabc 93a6 063b
00000040: cafa c83c 4a96 a63b 2a18 5bbc 4aff 0fbb
00000050: 0c34 debc aea3 66bc 5330 5cbc 9453 063d
00000060: f7ff 903b d34d bfbb a7db 83bc 63d6 d03c
00000070: 38ab ed3b ca14 b13b fa64 883c 642d 0b3d
00000080: e051 1c3c 2c31 a6bc 6a64 d43c 70b2 013d
00000090: d410 00bc 3877 f63c d3c9 5dbc 7f61 3a3c
000000a0: 4671 bbbb 923e b6bc c600 d4bc 1aaf 383c
000000b0: 16ae 073d 2bad afbc 1bbd 083d 779b 55bb
000000c0: a942 babc 003d 08bd febf afbc 9f77 04bd
000000d0: 6c98 81bc a56a 553c b830 713b 4152 d7bb
000000e0: 73b0 613c 1c9c 89bc ae86 2bbc 6548 833c
000000f0: c707 a33c c669 48bc d0e2 a6bc ff83 d9bc
00000100: 1edb 9139 b809 a73c 8b14 cd3c 1958 043d
00000110: 54a4 0cbc 7059 ddbb 8639 7d3c 9b93 b4bc
00000120: e778 08bd db92 ea3c 9b85 adbc 73b8 d7bb
00000130: f516 fcbb 9200 0ebd 6227 d93c 71d4 70bb
00000140: a413 673c a12c c63c 0150 783b 3cc3 0fbc
00000150: 1133 fbbc 33bc 1fbc 5d56 d3bc e38c ae3c
00000160: 68a3 8b3c 185f 983c b04f a9bc 8abb 14bb
00000170: 9974 b2bc 5d49 1dbd 6244 283c 81e6 4fbc
00000180: a4fa cd3c 2288 e6bc f8de 1bbd cd0a ee3b
00000190: 933d b83c 349a 09bd 962d 24bd 0722 21bc
000001a0: b1ea 3dbb 1c13 d2bc 7a67 843b 16f6 eabc
000001b0: 3365 0d3d 5c56 393b 1a62 01bd ac73 bcbc
000001c0: b594 033d 48bf b03c a073 ff3c 6f82 2cbc
000001d0: 36b8 f83a 2e8a 19bc 00bd 20bc 7449 ee3c
000001e0: e6e2 09bc 7973 8f3c 3ec0 59bc 40aa cbbc
000001f0: e749 edbc 9954 0dbd ce78 7ebc 2c47 2abc
00000200: 8d37 d73c 7c40 9a3c 9e9b b3bc a1b4 f33c
00000210: eaa5 e5bc 2d3d 983b 1eb7 4b3b 8cd9 e8ba
00000220: b2a9 edbc c36b 74bb c23b 77bc ddba 633b
00000230: 4a26 c43b 2539 733a 8a64 00bd e5e6 063d
00000240: e24b e73c 2706 febb f071 cdbc 967f 2dbd
00000250: 3e3b ce3b f5a9 a9bb e986 8a3c bcc5 39bd
00000260: 404f b93c 165f f63c 5ad3 e33c e6ca 763d
00000270: afbd a73c 5ecf c83c 0ef7 263d 94f7 133d
00000280: 2972 e5bb 6fcd 50bc 5838 f6bc de3f 3abc
00000290: e0a9 a33c f765 d4bc 7f9f 803c 49e1 8dbc
000002a0: 006c 12bc 0466 913b 92ad e43c e239 baba
000002b0: cb3e ed3b bd67 cc3c c6a1 d3bc b88b 1cbd
000002c0: 78b3 573b 8fe7 aabc 6d4d 00bd 640c da3a
000002d0: da88 1d3d 2d6f d13c a11f 8d3b c46e 2e3d
000002e0: aea8 b93c 40c1 3c3d 91e5 503d e65a 9b3c
000002f0: 7c6b eb3a 91a3 97bc 3693 c13c c515 20bd
00000300: 214c 293c aa51 c53c 9016 c43c 2a42 3d3b
00000310: 7d9b d83b bef1 71bc e268 04bd d9f2 94bc
00000320: 0199 f73a a5f4 e2bb 10eb 8b3c 603e 41bd
00000330: ddbe 44bd 588c 2dbd a7fe 313c ccad 043d
00000340: 3038 6e3c 7ba3 733c 1080 1b3d e55b 8b3c
00000350: 69bf 353d c2fa 763d c8a0 283d 600a 0f3d
00000360: a3a4 ea3b cdeb 233d 6e93 b8bc b098 db3c
00000370: 3be0 21bd fa3e c83b a0bf c93b 8191 b4bb
00000380: d127 0a3d 1d1b 8ebc d0bd ed3b eca5 ddbc
00000390: 7573 c93c e54f afbc 9b92 aabc 139b 4f3c
000003a0: 8c0d 8abc 501b 38bd 8582 393c 2cf8 f63c
000003b0: 9bc6 3d3c 9068 ba3c 5742 733d 99e2 4d3d
000003c0: 194f 433d 26e7 333d ad5e 083d 2ebb 163d
000003d0: c389 733d 0a84 923d 644e 083d 6e50 aa3b
000003e0: 051d e13c 9f9e 1dbd 9a49 373b 6fde f13a
000003f0: 14ae 8d3c f7a5 fdbc 8527 283c 5fb0 fa3b
0.0025433984 0.002576892 0.032537032 0.009821228 -0.03434156 0.009968856 0.009104099 -0.030066794
0.024027118 0.01991501 0.0028597373 -0.009058982 0.0013439131 0.008717605 -0.024660451 0.0020546063
0.024533648 0.005083834 -0.01337246 -0.0021972232 -0.027124427 -0.01407711 -0.013439256 0.03279455
0.0044250446 -0.005838135 -0.01609595 0.025492853 0.007253077 0.0054040896 0.016649712 0.033978835
0.009541005 -0.020287119 0.025926787 0.031664312 -0.007816512 0.030086145 -0.013536888 0.011375784
-0.0057202904 -0.022246633 -0.025879275 0.011272216 0.033125006 -0.021444878 0.03338347 -0.0032593885
-0.022736864 -0.0332613 -0.021453854 -0.032340642 -0.01581975 0.013025914 0.003680272 -0.0065710847
0.013774979 -0.016798072 -0.010469122 0.016025731 0.01990117 -0.01223225 -0.020371825 -0.026552198
0.0002781981 0.020390376 0.02503421 0.03231058 -0.008584101 -0.0067550465 0.015455609 -0.02204304
-0.033318426 0.02863448 -0.021181872 -0.0065832674 -0.0076931664 -0.034668513 0.026508037 -0.0036747719
0.014103804 0.024191203 0.0037889483 -0.008774575 -0.030663999 -0.00974946 -0.025798017 0.021307414
0.017045692 0.018600032 -0.02066788 -0.002269479 -0.021784114 -0.038400043 0.01027021 -0.012689234
0.025143929 -0.028141085 -0.038054436 0.007264471 0.022490298 -0.033594325 -0.040082537 -0.009834773
-0.0028978998 -0.025643878 0.0040406557 -0.028681796 0.03452034 0.0028280234 -0.031587698 -0.023004375
0.03212424 0.021575585 0.031183064 -0.010529145 0.0018975798 -0.0093713235 -0.009810686 0.02908776
-0.008415913 0.017511116 -0.013290463 -0.024861455 -0.028965903 -0.034504507 -0.015531732 -0.010392945
0.026271606 0.018829577 -0.02192479 0.029749217 -0.028033216 0.0046459646 0.0031084488 -0.0017765029
-0.029011581 -0.0037295676 -0.015089931 0.003474883 0.0059860097 0.00092782296 -0.03134588 0.032935042
0.028234426 -0.0077521983 -0.025078744 -0.042358004 0.0062936833 -0.005177731 0.016910033 -0.04535459
0.022620797 0.030074637 0.027810741 0.060252093 0.02047619 0.024512943 0.040762953 0.03612478
-0.0070021343 -0.012744292 -0.030056164 -0.011367766 0.019978464 -0.025927527 0.015701054 -0.017319338
-0.008936882 0.00443721 0.027914796 -0.0014207924 0.0072401515 0.02495181 -0.025833976 -0.038219184
0.0032913368 -0.020862369 -0.03132384 0.0016635773 0.03846059 0.025565708 0.004306749 0.042586103
0.02266344 0.046082735 0.05100018 0.018964242 0.001796111 -0.018510612 0.023629766 -0.03908326
0.010333092 0.024086792 0.02393654 0.0028878548 0.0066103325 -0.0147671085 -0.032326587 -0.018182205
0.0018890203 -0.0069261366 0.01707986 -0.047178626 -0.048033584 -0.04237017 0.0108639365 0.032392308
0.014539763 0.01487052 0.037963927 0.017011592 0.044371996 0.060297735 0.041168958 0.034922004
0.0071607395 0.0400198 -0.022531237 0.026806206 -0.039520483 0.006111023 0.0061568767 -0.0055105095
0.033729378 -0.017346913 0.0072552934 -0.027056657 0.024591187 -0.021400401 -0.02082186 0.01267125
-0.016852163 -0.044947922 0.011322622 0.030147634 0.011582996 0.022754937 0.05938944 0.05026493
0.047682855 0.043921612 0.033293415 0.036799602 0.05945755 0.07154091 0.033277884 0.0051975762
0.027479658 -0.03848135 0.0027967454 0.0018453131 0.017294921 -0.030962927 0.010263328 0.0076504196

bias f4 [10]
00000000: ecab 7dbd 2906 833d f801 ed3b 75f9 01bc
00000010: cbb1 003d af32 c43c 8043 0ebd 5cea 223d
00000020: 5b27 babd 2de0 a1bb
-0.061931536 0.06397659 0.0072329007 -0.00793301 0.031419557 0.02394995 -0.03473234 0.039774284
-0.09089538 -0.004940054
